models/test_1/MINST_99.pth (torch, 13209 bytes, 8 tensors)

weight f4 [4, 1, 5, 5]
000000 01 5d a2 3e 37 6f 99 3c f4 50 d7 3d e1 ee 6e bb
       0.3171158 0.01872979 0.105134875 -0.00364583
000010 ec c1 e5 3d ea f6 19 3f bf 33 1d 3f 80 4a 06 3f
       0.11218628 0.60142386 0.61407083 0.5245743
000020 ab 24 35 3e 94 cb e7 bd 90 67 ae 3e 74 c9 31 3f
       0.17689769 -0.11318126 0.34063387 0.6944802
000030 41 89 2f 3f f9 d1 3a 3f 0d 7f 1e 3e 35 70 e7 3d
       0.6856881 0.7297664 0.15478154 0.11300699
000040 9f 9b d6 bd b7 77 10 3d 87 af 0a 3f 3d 37 e9 3e
       -0.10478901 0.03527042 0.54174083 0.45549956
000050 7f 57 2f bf 3c 15 20 bf ad b5 74 be e1 2a cb 3d
       -0.68492883 -0.625324 -0.23897429 0.09920288
000060 b1 a6 d7 3e 17 97 23 be e0 15 a0 3e dd 5e ae 3e
       0.42119363 -0.15975605 0.3126669 0.3405675
000070 4c fd 26 3e 78 67 80 be db 88 a2 3e 8c eb 09 3f
       0.16307563 -0.2507894 0.31745037 0.5387504
000080 95 56 b1 3e 6a dc 98 be 5b 29 18 bf 06 9a 1b 3f
       0.3463637 -0.29855663 -0.59438103 0.60781896
000090 fc 0d 41 3f d1 4b 16 be 98 5c 09 bf 09 09 e2 be
       0.75411963 -0.14677359 -0.5365691 -0.44147518
0000a0 72 48 e4 3e 13 7e b0 3e 64 28 03 bd 61 89 03 bf
       0.4458652 0.34471187 -0.03202094 -0.513815
0000b0 bb 23 41 be de 07 be 3e e7 e6 8a 3e 96 26 0b be
       -0.18861286 0.37115377 0.2712929 -0.13588938
0000c0 f1 9d 39 be 20 39 ef bd 5f 94 e1 3e 3a 17 18 be
       -0.18126656 -0.116808176 0.4405851 -0.1485261
0000d0 71 fc 5a be c6 fa 3b be c4 f1 e8 bd 79 38 89 be
       -0.21385361 -0.18357381 -0.11374238 -0.26800898
0000e0 12 8d ce be 1b b8 c4 be 33 c7 5d be 02 6b 67 3e
       -0.40342003 -0.3842171 -0.2165802 0.22599414
0000f0 88 7e 1e bf f0 e6 be be e7 6c fc bd e9 a9 98 3e
       -0.6191182 -0.37285566 -0.12325459 0.2981713
000100 72 c1 f7 3e c0 ee 92 be 7b 39 69 3e 2e f2 f8 3e
       0.48389775 -0.28697777 0.22775833 0.48622268
000110 9b bb 2d 3f b5 59 5f 3e b2 f4 12 3f fc bb 25 3f
       0.6786439 0.21811564 0.57404625 0.64739966
000120 e1 cd 02 3f c4 6a 76 3d 20 b7 06 be 0f 73 74 3d
       0.51095396 0.060160413 -0.13155794 0.05968004
000130 0e c0 b7 3e a2 e6 c8 3e f9 06 eb 3e 61 6c be 3e
       0.35888714 0.3923846 0.45903757 0.37192062
000140 5f 74 95 be 52 f2 bd bc 69 d1 03 3e 2d 40 a4 3e
       -0.29190347 -0.023186836 0.12872852 0.32080212
000150 af 19 dd 3e 56 13 ee be 87 de f0 3c c0 92 6d 3e
       0.43183658 -0.46499127 0.029402984 0.23200512
000160 2e e7 13 3f 8b 35 bb 3e 93 3f 9b be 10 39 86 3c
       0.5777463 0.36564288 -0.3032194 0.016384631
000170 80 58 07 3e 62 32 0a 3f c7 22 00 3f 69 3c 0b bd
       0.13217354 0.5398313 0.50053066 -0.03399316
000180 ef bd 55 3d 1d 55 35 3e c9 b1 2b 3e 15 1b 0c 3f
       0.052183088 0.1770825 0.16767038 0.54728824

bias f4 [4]
000000 f6 e4 af be ca 66 19 be f1 a2 02 bf 2b 68 e3 be
       -0.3435437 -0.14980617 -0.5102988 -0.4441541

weight f4 [8, 4, 5, 5]
000000 9f f4 39 3e 21 eb 40 3d 23 67 52 be a4 28 ad be
       0.18159722 0.047099236 -0.20547156 -0.3382007
000010 e5 3d 30 bd 74 57 ca bc cf 34 9e 3d cd 05 bc bd
       -0.043027777 -0.024699904 0.07724916 -0.09180794
000020 17 11 67 be 2b 07 95 be 73 5d 22 bd 66 95 0a 3e
       -0.22565113 -0.2910703 -0.0396399 0.13533553
000030 63 8c 99 be 91 6d 99 be 12 1d aa bd 28 cd e7 bd
       -0.2998992 -0.29966405 -0.08306326 -0.11318427
000040 19 3c 5e 3d 7a 0a 2d bc f4 71 bb bd 14 3b b0 3c
       0.054256532 -0.01056158 -0.09152594 0.021512546
000050 f3 f0 33 be b1 27 91 3c b3 5c 1f 3e 15 0d ff 3d
       -0.17572384 0.017719122 0.15562706 0.12453667
000060 d0 63 8e 3d 10 0b e9 bc 6f 16 0a 3c 4b f9 26 be
       0.069526315 -0.028447658 0.0084282 -0.16306035
000070 93 eb d2 3c 49 b3 2e 3d 00 45 98 bb 7f e6 39 3e
       0.025747096 0.04265145 -0.0046468973 0.18154334
000080 07 33 32 3e 93 4d 1a 3e ea d8 a4 3d 2d 02 27 3e
       0.17402278 0.15068655 0.080491856 0.16309424
000090 8f eb c1 3d 58 a6 91 3e b9 9f 09 3e d4 4b b1 3e
       0.09468757 0.28447223 0.13439836 0.34628165
0000a0 c9 00 18 bd db b7 8b 3d b9 6c 36 3e 72 8d 2d 3e
       -0.037110124 0.06822177 0.17814912 0.16948488
0000b0 9c aa 25 3e b2 9f 06 be 1d 8b 20 be f6 1e a7 3d
       0.16178364 -0.13146856 -0.15678068 0.08160202
0000c0 7c a8 89 3e dc 71 94 bc 75 8f 68 bc 0b b3 13 be
       0.26886356 -0.018120699 -0.014194359 -0.14423768
0000d0 18 f6 4a be 3b 7d 70 bc 2c e4 c6 bd 22 bc 4c bd
       -0.1982044 -0.014678295 -0.09711489 -0.049984105
0000e0 6a 35 08 3d 32 34 48 bc cd 08 77 bd d0 af eb bc
       0.033254065 -0.012219476 -0.060311127 -0.028770357
0000f0 f5 df e8 3b cd 40 99 bd f9 97 67 be a5 b6 d1 bd
       0.007106776 -0.07483063 -0.22616567 -0.10239915
000100 08 3b f6 3d d5 90 cf 3d c6 07 96 bd c5 7a 3a be
       0.12022978 0.101350464 -0.073257014 -0.18210895
000110 60 3c 10 bd f5 38 7f 3d ee 5e 81 bd 19 71 fd bd
       -0.035213828 0.062310178 -0.063169345 -0.12375087
000120 a8 00 17 be bb f4 82 3e 4f b7 4a 3e f5 be e1 bd
       -0.14746344 0.2557734 0.19796489 -0.1102275
000130 88 7f 02 be 6a c7 12 be 19 e2 62 be b4 20 b0 bd
       -0.12743962 -0.14333883 -0.22156562 -0.085999876
000140 b5 d2 0b 3d 8e 25 54 3e b2 e4 2b 3c d4 a8 f7 bd
       0.034136493 0.20717451 0.010491537 -0.12092748
000150 c7 29 4a bd f4 ce 3c 3e b2 7e ab 3e 0f 2f 01 be
       -0.04935625 0.18438321 0.33495098 -0.12615608
000160 cc 67 04 b9 fe 6a 17 3e ba c3 69 3e 8a e6 5f 3e
       -0.00012627168 0.14786908 0.2282857 0.21865287
000170 35 32 c4 3d 6c f8 0b bc 9f 63 64 3e c2 a7 8f 3e
       0.09579889 -0.008543115 0.22303627 0.28057677
000180 8e 74 a8 3e d2 55 87 ba a7 1d fa bb 87 ff 8c 3d
       0.32901424 -0.0010325259 -0.0076329294 0.068846755
000190 13 2f 8e be d2 12 3a 3b b2 27 e0 3d f0 ac c7 3d
       -0.2777029 0.0028392565 0.10945071 0.09749782
0001a0 1c 41 05 3e ae d4 a7 3d 5f 26 31 be 45 18 52 be
       0.13013119 0.08194862 -0.17299794 -0.2051707
0001b0 21 6f c7 bd fd 5d 72 be f1 48 7a 3e 4a 4f 89 3e
       -0.09737993 -0.23668666 0.24441887 0.26818305
0001c0 9f f8 38 3e b1 24 b9 bb ae 4a 5a be ca 4b b6 3e
       0.18063591 -0.005650126 -0.2131755 0.35604697
0001d0 e8 68 d5 3e f2 b5 e8 3e e4 af b3 3e e4 3c 1a 3e
       0.416816 0.45451313 0.3509513 0.1506229
0001e0 d2 fc 13 bc da 3a 47 3e c4 7a c4 3d b3 4f c0 3d
       -0.009032445 0.19456044 0.09593728 0.093902014
0001f0 3d 57 71 bc 11 91 b5 be a4 e6 71 bd 3a af c2 bc
       -0.014730272 -0.3546224 -0.059057847 -0.023765195
000200 4b d5 01 3d 70 09 15 be 5f 6b 32 bd 7a 69 21 be
       0.031697553 -0.14554381 -0.04355943 -0.15762892
000210 99 73 36 be aa 4b 8e be fb 9a 90 bd 67 38 e6 bd
       -0.17817535 -0.27792102 -0.0706081 -0.11241227
000220 54 68 07 be da 1a 93 be 30 8d 4d be 09 7d 78 be
       -0.13223392 -0.28731424 -0.2007339 -0.24266447
000230 fb 7b 21 3d ce 63 a4 3d c9 49 94 bd 84 bc 9b bd
       0.039424878 0.08026849 -0.07240636 -0.07604316
000240 9f 90 3c be b7 08 93 be 39 55 64 be 32 0e f2 bd
       -0.18414544 -0.28717586 -0.22298135 -0.11819114
000250 a6 27 3f 3d 8e 4e 72 bd 07 0c 13 bd fb f6 46 be
       0.04666867 -0.059156947 -0.035900142 -0.19430153
000260 dc ff b9 bd 69 6e 23 be bf 7b cf bc 35 df 52 3d
       -0.090820044 -0.15960087 -0.025327561 0.051482398
000270 b8 72 e2 bc b8 ed 87 bc 8c f5 b6 bd b5 db 4c 3c
       -0.027642593 -0.016592845 -0.08933553 0.012503554
000280 73 1e b0 3d df 66 73 3d 0d 72 3f 3d 5a 45 c6 bc
       0.08599558 0.059424277 0.046739627 -0.024202991
000290 79 2b 7b bd b0 e1 db bc ed 4b 2a 3d f5 62 30 be
       -0.061320756 -0.026841015 0.041576315 -0.17225249
0002a0 d9 92 ad bd b9 e3 93 bd 21 73 1f be 44 6a 59 be
       -0.084752746 -0.07221169 -0.15571262 -0.21231943
0002b0 39 b4 f0 bd 1a 76 f5 3d 98 5e b2 bc 93 45 73 be
       -0.11753125 0.11985417 -0.021773621 -0.23757009
0002c0 9a 84 71 be 7d 36 4f be 98 b1 ca bd 29 29 a7 3d
       -0.2358574 -0.2023563 -0.098971546 0.081621476
0002d0 60 16 2b be 61 cb 87 be 45 e8 4d be 25 6a 78 be
       -0.16707754 -0.26522353 -0.20108135 -0.24259241
0002e0 03 da 60 be 3d 4a c9 3d be c7 26 be 96 8b 08 be
       -0.21958165 0.09828613 -0.16287133 -0.13334498
0002f0 ec c1 90 be f7 d2 29 be f2 86 d0 3e b0 94 e4 3e
       -0.2827295 -0.16584383 0.40727955 0.4464469
000300 22 7c 97 3e eb 03 65 3e 74 ae d9 bd 0d 44 73 bd
       0.29586893 0.22364776 -0.106289774 -0.05939107
000310 43 06 97 bd 19 60 4c bd 5b a1 61 3d 24 c4 2b bd
       -0.07374241 -0.049896333 0.05508552 -0.0419351
000320 a7 1f 2a 3d 3e 88 a1 be e1 f5 a6 be 09 69 79 be
       0.041534092 -0.31549257 -0.32609466 -0.24356474
000330 cd 96 7f be 72 56 64 be 64 dd d0 be ca d1 3b be
       -0.2495987 -0.22298601 -0.40793908 -0.18341747
000340 a4 60 17 be c0 3a e0 bc 41 37 28 be 1c da a7 be
       -0.14782959 -0.027371764 -0.16427328 -0.32783592
000350 9f a4 29 be 2b 1f 50 3d 08 13 a8 3d 59 2a b8 bd
       -0.16566704 0.050810974 0.08206755 -0.08992452
000360 4a 4c 16 be dc 8b 12 3d d7 24 cf bc 0f f3 09 3e
       -0.1467754 0.03577791 -0.025286121 0.13471626
000370 cb a0 fd 3d e9 86 26 be 2f 60 c2 3d 4e 5a e7 bd
       0.123841844 -0.16262402 0.09491002 -0.11296521
000380 6b 4a 26 3e 40 6d 8e 3d e0 5b bd 3d 10 62 be bc
       0.16239326 0.069544315 0.092460394 -0.02324012
000390 4c d6 92 3d 5e 17 e2 bc 14 c8 0a bd 01 62 ac 3c
       0.0716978 -0.027599033 -0.033882216 0.021042826
0003a0 8b 9c f4 bb aa 42 5c 3d 49 8f 3a ba 39 99 65 3c
       -0.0074649504 0.053774513 -0.0007116688 0.014013582
0003b0 3b 2d ac 3d 93 d5 54 bb a6 be a6 3d c4 85 b4 3d
       0.084070645 -0.0032475933 0.08141832 0.08814576
0003c0 45 f8 29 bd 8d ae 4a 3d c8 e7 08 bd d6 b6 f5 3d
       -0.041496534 0.04948287 -0.03342417 0.11997764
0003d0 9f c8 06 be 96 8f b1 3d 9a b8 45 3e 8f bc a4 3d
       -0.13162468 0.08669965 0.19308701 0.08043777
0003e0 71 43 5b 3d f9 37 bf 3d 2a 9f 29 be 78 02 82 be
       0.053531114 0.09336848 -0.16564623 -0.25392509
0003f0 4a 80 ab be 10 e5 0a be b8 74 27 3e 45 2e 94 bd
       -0.33496314 -0.13563943 0.16353118 -0.07235388

bias f4 [8]
000000 59 3e 73 be 14 20 65 bd 00 4b 1a 3a 01 10 18 bd
       -0.23754252 -0.055938795 0.00058858097 -0.037124638
000010 91 e7 a5 be 1a 31 a6 3d 30 59 80 bd 24 e0 2a be
       -0.32403234 0.08114834 -0.06267011 -0.16687065

weight f4 [8, 128]
000000 73 d3 13 bd 01 14 6c 3e c3 83 d3 3e 54 fb 92 3e
       -0.036090326 0.23054506 0.41311464 0.28707373
000010 0c 51 50 bc 8f 79 11 bc 30 a8 95 3e 39 13 a0 3e
       -0.012714636 -0.0088790795 0.2922988 0.31264666
000020 7c f3 99 3d a5 12 87 be c2 97 1e be 84 93 82 be
       0.07517144 -0.26381412 -0.15487579 -0.2550317
000030 44 21 b4 bb 05 61 79 bc a0 2d 00 3e e0 b1 77 3d
       -0.0054971296 -0.015220885 0.12517405 0.06047237
000040 e9 ae 0a bd fd 40 c3 3b 57 97 d6 bd 07 24 2d bd
       -0.033858214 0.005958675 -0.104780845 -0.042270686
000050 aa 1a 83 bc 4d 24 07 3e 24 2f b7 be ea 07 cd be
       -0.016003925 0.13197441 -0.35778153 -0.400451
000060 d5 ab de bd 11 0c c0 3c 5b 95 d7 bd 55 08 5e be
       -0.10872618 0.023443254 -0.10526534 -0.21682866
000070 58 c9 25 be 69 6e 6a be f6 4c e4 3d d7 d6 1f 3d
       -0.16190088 -0.2289368 0.11147492 0.039023247
000080 18 52 72 bd 18 ca 6e 3d 47 3e 14 3e 65 61 26 3e
       -0.059160322 0.0582982 0.14476882 0.1624809
000090 9d f7 f5 bd 7e aa 3b 3e 7c 14 00 bd 07 0d fe bc
       -0.12010119 0.18326756 -0.031269535 -0.031012071
0000a0 ff a1 19 bd 14 8c bd bb 18 22 36 bd da 21 91 bc
       -0.037508007 -0.005784521 -0.044466108 -0.017716337
0000b0 a6 a3 05 be d4 0b c7 3e e8 cf 0e 3f 9d 49 2d 3d
       -0.13050708 0.38876212 0.5578599 0.04230653
0000c0 09 7a 92 3d 62 5c 28 3d 77 e4 6c bc f7 39 8f be
       0.071521826 0.041103728 -0.014458767 -0.2797391
0000d0 46 f9 17 3e 59 31 d7 bd c6 c9 6d be 85 0d f6 bd
       0.14841184 -0.10507459 -0.23221502 -0.120142974
0000e0 0e 84 1b 3d bc 07 f3 bd d5 e4 8e 3e fd 15 0c be
       0.037967734 -0.118667096 0.2790896 -0.13680263
0000f0 70 ca 63 3d d9 eb 8e bd 42 e7 4a be 0b a4 bf 3e
       0.05561298 -0.06978578 -0.1981478 0.37429842
000100 9d 5c ea bc ea d1 ed 3d 36 cd c9 3b 6e 8f 02 3f
       -0.028608615 0.116123036 0.0061584963 0.51000106
000110 0c 9a 0c be ac f6 62 be f4 0b 2c 3e b3 0c 08 3e
       -0.13730639 -0.2216441 0.16801435 0.13286094
000120 7b 3b 99 3d 20 c6 2e bd 96 62 8f 3e 1e c1 bd be
       0.07482048 -0.042669415 0.28004903 -0.370614
000130 0c c7 37 3e 86 59 e6 3e 84 d4 e9 3d f7 e9 2a 3d
       0.17947024 0.44990176 0.11417487 0.041727033
000140 9f 35 83 3e 7c e9 82 3e 8b d4 22 3d 84 82 74 bd
       0.25626847 0.2556876 0.039753478 -0.059694782
000150 0d 9f c9 bc ee 5a 91 bd e0 93 94 be 6c 24 cb bd
       -0.024611974 -0.070974216 -0.2901907 -0.09919056
000160 08 25 ff bc dc 6f 72 bd d2 4a de be 5c 3d e6 bd
       -0.031145588 -0.05918871 -0.43416458 -0.11242172
000170 b8 f5 0c be b2 89 60 3d 64 e2 08 bc 53 fc 59 3e
       -0.1376561 0.054818816 -0.008354757 0.2128766
000180 5f 63 30 3e b6 ca 56 bd 8a fb d5 3a 7a a7 87 be
       0.17225407 -0.052439414 0.0016325575 -0.26494962
000190 cc 7d d0 3d 4f f8 6a 3d f9 2d 0e be 44 a5 73 3d
       0.10180244 0.05736571 -0.13884725 0.05948378
0001a0 31 bc 2a 3d 63 79 0a be e6 79 aa 3d 01 d0 d1 3e
       0.04168338 -0.13522868 0.083240315 0.40979007
0001b0 53 25 37 3e d2 a5 8f be 35 68 30 be a6 de 16 be
       0.17885332 -0.28056198 -0.17227252 -0.14733371
0001c0 d9 24 b9 bd b5 34 28 3d 58 41 46 bd 30 6d 1c 3e
       -0.09040231 0.04106589 -0.04840216 0.15276027
0001d0 da b3 69 3d dc 07 9e 3b 03 1d d4 bd 58 ea c3 3d
       0.057056285 0.0048227143 -0.10357096 0.09566182
0001e0 53 64 88 bc af 36 5f be 0e d8 f7 bd f4 43 5e 3e
       -0.0166494 -0.21798204 -0.12101756 0.2170561
0001f0 cf 33 55 3e 3a fc a7 bd a5 29 87 be 3c 2d 0f 3d
       0.20820545 -0.08202405 -0.2639896 0.03495525
000200 a4 6c 54 bd e4 99 39 be 96 1c d7 be 2a ec 6f be
       -0.05186142 -0.18125111 -0.42013997 -0.23429933
000210 5e 9b 54 3e af d4 0c 3e a3 31 8d 3e 90 6d 2a 3e
       0.20762393 0.13753007 0.27576932 0.16643357
000220 c4 10 bf 3d 11 de 40 be 51 f1 b2 3c c5 39 12 3d
       0.0932937 -0.18834712 0.021843584 0.035699625
000230 89 e7 ca bc 5b 91 a2 be 2f 5c 15 3b bd 38 8a 3e
       -0.024768608 -0.31751522 0.0022790541 0.26996413
000240 18 84 8d be 6e 99 95 bc ea 90 58 3e db 98 7e 3e
       -0.27639842 -0.018261638 0.2114903 0.24862997
000250 d2 05 14 3e 76 72 94 bc 6f 50 76 3d e3 80 55 3d
       0.14455345 -0.018120985 0.0601353 0.05212487
000260 ce 78 fa 3d 50 38 d5 3e 42 e7 13 be 57 dc 40 be
       0.12230073 0.41644526 -0.14443687 -0.18834053
000270 44 c7 fc 3c 09 11 b8 3c 38 f9 0c be 0f bd 1f bd
       0.030856736 0.02246906 -0.13766944 -0.03899866
000280 a9 8a 09 3d c6 3f 96 be 63 76 de bd e3 0f 26 be
       0.033579502 -0.2934553 -0.10862424 -0.16216998
000290 de 18 2a 3e 84 b1 04 be dc 9e a9 be 00 bc c7 be
       0.16611049 -0.12958342 -0.33129013 -0.3901062
0002a0 19 f4 d9 3d 60 59 bf be a4 5c 99 3e 74 df 5d 3e
       0.10642261 -0.37372875 0.29953492 0.21667272
0002b0 c0 3f 66 bd d4 ee ed 3c a8 59 42 3e 62 2f 18 3e
       -0.05621314 0.029044546 0.18979514 0.14861825
0002c0 0c 1f e9 3c a5 3a d6 3d 33 11 7d 3e b9 e2 2a 3e
       0.028457187 0.10460404 0.24713592 0.1668805
0002d0 39 e6 0d be e8 ed b8 3d ab 77 f1 3d 1c 08 e0 bc
       -0.13857354 0.09029752 0.11790403 -0.027347617
0002e0 93 c8 18 3e 18 7b 0f 3e 8b e2 da 3d bf 97 6f be
       0.14920263 0.140118 0.10687741 -0.2339773
0002f0 8c 24 79 3e 74 72 45 bb 92 85 54 bc ef 94 a7 be
       0.24330348 -0.0030128034 -0.012971299 -0.32730815
000300 d1 74 4e be 78 db b5 be fa 68 29 be 94 ca d3 bd
       -0.2016175 -0.35519004 -0.16543952 -0.10341373
000310 ad c8 26 be 0b 1a df 3c 79 ec 4c bd 9e 8f 77 be
       -0.16287489 0.027234098 -0.050030205 -0.2417588
000320 61 85 0a be 3b 28 10 bd cb 53 1a 3e 39 6a 6f 3d
       -0.13527443 -0.035194617 0.15071027 0.05845091
000330 af 45 d7 bd 77 39 67 3e 57 8c 58 3e ba 62 e6 bc
       -0.10511338 0.22580515 0.21147285 -0.028123248
000340 ab 26 7f 3e c0 e9 19 3e 93 44 5b bd 58 43 31 be
       0.24917094 0.15030575 -0.053532194 -0.17310846
000350 0e 6b ae 3e cb 83 f9 3d 64 58 af bc b8 16 f1 bd
       0.3406605 0.12183341 -0.021404453 -0.117719114
000360 b3 04 1a 3c a4 ef 84 bc f3 6d d6 bb fb e4 17 3e
       0.009400534 -0.01622755 -0.0065438687 0.14833443
000370 ff bd 40 3e ed da f1 bd eb 8a 13 bd 70 cf e7 bb
       0.18822478 -0.11809335 -0.036021154 -0.007074289
000380 2e 4c ef 3e 51 75 94 3d 7d f6 ca bc a1 62 14 be
       0.46737808 0.07248939 -0.024775738 -0.14490749
000390 a7 51 af bd 8e 45 2d be 00 ea 1b 3e 7c af d1 3d
       -0.08560496 -0.16921064 0.15225983 0.10238549
0003a0 ab 4f 39 be 79 86 11 be d0 e1 a1 be eb c8 19 3d
       -0.18096797 -0.14211453 -0.31617594 0.037545126
0003b0 4b 70 bf 3e 3c a1 e5 3d d5 a0 0c 3e 33 72 56 3e
       0.3739036 0.11212394 0.13733228 0.20942001
0003c0 b4 6d 0e 3e 13 44 6e 3d 1c 25 b7 bd af 41 93 be
       0.13909036 0.05817039 -0.08942625 -0.2876105
0003d0 e9 6d 0c be b3 a4 cc bc 6f 92 99 3e f2 e3 d1 bd
       -0.13713802 -0.024980878 0.29994532 -0.10248555
0003e0 6a 41 f5 bd 9a 94 52 3d ca 9d 4b 3e c3 37 87 bd
       -0.11975367 0.05141125 0.1988441 -0.066024326
0003f0 00 f0 31 3e b2 08 2f bb 3a 33 2d 3e 74 a0 54 be
       0.17376709 -0.0026708064 0.16914073 -0.20764333

bias f4 [8]
000000 25 ad 06 3d 46 67 55 3c df 13 6a bb 80 ba 37 bd
       0.032879967 0.013025111 -0.003571741 -0.044855595
000010 e9 0e 76 3c 80 1e 26 be bf 2f 6c bd ee c8 be bc
       0.015018203 -0.16222572 -0.05766272 -0.02328917

weight f4 [10, 8]
000000 25 92 94 be 71 4f 1a bf 6e 85 1c 3e 7b 28 5e 3d
       -0.2901775 -0.6027747 0.15285274 0.054237824
000010 a4 f9 aa be 65 65 02 bf 79 5a 6c bf 38 bc fc 3c
       -0.33393586 -0.50935966 -0.9232555 0.030851468
000020 6c 1f a4 3e 58 e3 d6 be 37 e1 2d bf 57 02 6e bf
       0.32055223 -0.41970325 -0.67921776 -0.9297232
000030 49 2e f5 be f7 28 19 3f 5c c4 bf 3e 75 9b 94 3e
       -0.47886875 0.5982813 0.37454498 0.29024854
000040 99 f3 a9 3d e6 3f f4 bb bb e9 1e 3f 3e 63 45 bf
       0.08298416 -0.0074539063 0.62075394 -0.77104557
000050 33 a7 f4 3e 1e 20 23 be fd 68 b9 bd 7f 27 ad 3e
       0.47783813 -0.1593022 -0.09053228 0.33819196
000060 16 3d 27 bf 2e 13 41 3e f4 39 c8 3e b4 c6 fb 3e
       -0.65327585 0.18854973 0.39106715 0.49175036
000070 d4 35 14 bd 43 e8 89 3f 2d c8 18 ba 0b 9c b2 bc
       -0.036184147 1.0774006 -0.00058281684 -0.021802923
000080 b0 0f 3e 3f 09 12 93 bd a6 a5 d5 be 9d a6 ef 3e
       0.7424269 -0.07181174 -0.41727942 0.46806803
000090 f2 f5 51 3e 80 ac 7f 3d c6 14 50 3f 9c a9 31 be
       0.20503977 0.06242037 0.812817 -0.17349857
0000a0 a2 43 76 bf 67 53 f3 3e d7 6d 14 bf 67 a9 28 3e
       -0.9619695 0.47524568 -0.579801 0.16470872
0000b0 45 32 25 be 95 1e 90 be f7 3f f2 3e cd 45 e6 3e
       -0.16132458 -0.28148332 0.47314426 0.4497513
0000c0 ce 19 2c bf 76 fb 12 bf a4 f6 22 be 28 cc 6d 3e
       -0.67226875 -0.5741495 -0.15914398 0.2322241
0000d0 7a 7a 7b be a4 35 0a bf c7 9c a6 3e ef 43 00 bf
       -0.2455844 -0.539881 0.32541487 -0.5010366
0000e0 ed 65 d5 3e 08 4c 00 be ca b9 9e 3d 42 ac 9b 3e
       0.41679326 -0.12529004 0.0775028 0.3040486
0000f0 da 24 0b be 08 1a 12 3e 21 3b 53 3e 4e d7 80 3f
       -0.13588277 0.14267743 0.20628025 1.0065706
000100 70 a5 59 be 28 c2 93 3e ee 72 31 3f 4e 11 75 3d
       -0.21254516 0.28859067 0.69315994 0.059830956
000110 b7 fd 4e bf 2e f5 34 be f0 e3 02 3f 45 10 7e bd
       -0.8085589 -0.17671654 0.51129055 -0.062027235
000120 05 fb 97 3e ce d7 7f 3f 7c 06 cd be be 9a ef 3e
       0.296837 0.99938667 -0.4004401 0.46797746
000130 5a 3a 49 be ce 5b bd 3d ab 1c 0b be 53 55 98 be
       -0.19651166 0.09246026 -0.13585155 -0.29752597

bias f4 [10]
000000 f8 5d 7e be d9 01 32 3e 73 02 28 3e 2d 7b 47 3e
       -0.24840534 0.17383517 0.16407184 0.19480582
000010 8f 11 5e be d5 f3 96 3e be ca 6e be 56 ad 20 3e
       -0.21686386 0.29482904 -0.23319528 0.15691122
000020 0b f3 7f be ab 40 b3 bd
       -0.24995057 -0.08752569
